{"keras_version": "2.0.4", "class_name": "Sequential", "config": [{"class_name": "BatchNormalization", "config": {"name": "batch_normalization_1", "dtype": "float32", "gamma_regularizer": null, "gamma_initializer": {"class_name": "Ones", "config": {}}, "beta_regularizer": null, "beta_initializer": {"class_name": "Zeros", "config": {}}, "axis": 1, "momentum": 0.99, "batch_input_shape": [null, 1, 64, 64], "moving_mean_initializer": {"class_name": "Zeros", "config": {}}, "epsilon": 0.001, "gamma_constraint": null, "scale": true, "beta_constraint": null, "moving_variance_initializer": {"class_name": "Ones", "config": {}}, "center": true, "trainable": true}}, {"class_name": "Conv2D", "config": {"strides": [2, 2], "kernel_constraint": null, "kernel_size": [3, 3], "kernel_regularizer": null, "bias_constraint": null, "activation": "linear", "kernel_initializer": {"class_name": "VarianceScaling", "config": {"seed": null, "scale": 1.0, "distribution": "uniform", "mode": "fan_avg"}}, "dilation_rate": [1, 1], "filters": 128, "activity_regularizer": null, "name": "conv2d_1", "use_bias": true, "data_format": "channels_first", "bias_initializer": {"class_name": "Zeros", "config": {}}, "padding": "valid", "bias_regularizer": null, "trainable": true}}, {"class_name": "Activation", "config": {"name": "activation_1", "activation": "relu", "trainable": true}}, {"class_name": "MaxPooling2D", "config": {"strides": [2, 2], "pool_size": [2, 2], "name": "max_pooling2d_1", "data_format": "channels_first", "padding": "valid", "trainable": true}}, {"class_name": "Conv2D", "config": {"strides": [1, 1], "kernel_constraint": null, "kernel_size": [2, 2], "kernel_regularizer": null, "bias_constraint": null, "activation": "linear", "kernel_initializer": {"class_name": "VarianceScaling", "config": {"seed": null, "scale": 1.0, "distribution": "uniform", "mode": "fan_avg"}}, "dilation_rate": [1, 1], "filters": 256, "activity_regularizer": null, "name": "conv2d_2", "use_bias": true, "data_format": "channels_first", "bias_initializer": {"class_name": "Zeros", "config": {}}, "padding": "same", "bias_regularizer": null, "trainable": true}}, {"class_name": "Activation", "config": {"name": "activation_2", "activation": "relu", "trainable": true}}, {"class_name": "MaxPooling2D", "config": {"strides": [2, 2], "pool_size": [2, 2], "name": "max_pooling2d_2", "data_format": "channels_first", "padding": "valid", "trainable": true}}, {"class_name": "Conv2D", "config": {"strides": [1, 1], "kernel_constraint": null, "kernel_size": [2, 2], "kernel_regularizer": null, "bias_constraint": null, "activation": "linear", "kernel_initializer": {"class_name": "VarianceScaling", "config": {"seed": null, "scale": 1.0, "distribution": "uniform", "mode": "fan_avg"}}, "dilation_rate": [1, 1], "filters": 256, "activity_regularizer": null, "name": "conv2d_3", "use_bias": true, "data_format": "channels_first", "bias_initializer": {"class_name": "Zeros", "config": {}}, "padding": "same", "bias_regularizer": null, "trainable": true}}, {"class_name": "Activation", "config": {"name": "activation_3", "activation": "relu", "trainable": true}}, {"class_name": "MaxPooling2D", "config": {"strides": [2, 2], "pool_size": [2, 2], "name": "max_pooling2d_3", "data_format": "channels_first", "padding": "valid", "trainable": true}}, {"class_name": "Flatten", "config": {"name": "flatten_1", "trainable": true}}, {"class_name": "Dense", "config": {"kernel_initializer": {"class_name": "VarianceScaling", "config": {"seed": null, "scale": 1.0, "distribution": "uniform", "mode": "fan_avg"}}, "kernel_constraint": null, "kernel_regularizer": null, "bias_constraint": null, "units": 50, "activation": "linear", "activity_regularizer": null, "name": "dense_1", "use_bias": true, "bias_initializer": {"class_name": "Zeros", "config": {}}, "bias_regularizer": null, "trainable": true}}, {"class_name": "Activation", "config": {"name": "activation_4", "activation": "relu", "trainable": true}}, {"class_name": "Dropout", "config": {"name": "dropout_1", "trainable": true, "rate": 0.6}}, {"class_name": "Dense", "config": {"kernel_initializer": {"class_name": "VarianceScaling", "config": {"seed": null, "scale": 1.0, "distribution": "uniform", "mode": "fan_avg"}}, "kernel_constraint": null, "kernel_regularizer": null, "bias_constraint": null, "units": 50, "activation": "linear", "activity_regularizer": null, "name": "dense_2", "use_bias": true, "bias_initializer": {"class_name": "Zeros", "config": {}}, "bias_regularizer": null, "trainable": true}}, {"class_name": "Activation", "config": {"name": "activation_5", "activation": "relu", "trainable": true}}, {"class_name": "Dropout", "config": {"name": "dropout_2", "trainable": true, "rate": 0.6}}, {"class_name": "Dense", "config": {"kernel_initializer": {"class_name": "VarianceScaling", "config": {"seed": null, "scale": 1.0, "distribution": "uniform", "mode": "fan_avg"}}, "kernel_constraint": null, "kernel_regularizer": null, "bias_constraint": null, "units": 3, "activation": "linear", "activity_regularizer": null, "name": "dense_3", "use_bias": true, "bias_initializer": {"class_name": "Zeros", "config": {}}, "bias_regularizer": null, "trainable": true}}, {"class_name": "Activation", "config": {"name": "activation_6", "activation": "softmax", "trainable": true}}], "backend": "tensorflow"}